(lightning) root@8b02602e1f32:/home/HLCV# /root/miniconda3/envs/lightning/bin/python /home/HLCV/Assignment3/code/ex3_convnet.py
Using device: cuda
[128, 512, 512, 512, 512, 512]
ConvNet(
  (conv_layer): Sequential(
    (0): Conv2d(3, 128, kernel_size=(3, 3), stride=(1, 1), padding=(1, 1))
    (1): MaxPool2d(kernel_size=2, stride=2, padding=0, dilation=1, ceil_mode=False)
    (2): ReLU(inplace=True)
    (3): Conv2d(128, 512, kernel_size=(3, 3), stride=(1, 1), padding=(1, 1))
    (4): MaxPool2d(kernel_size=2, stride=2, padding=0, dilation=1, ceil_mode=False)
    (5): ReLU(inplace=True)
    (6): Conv2d(512, 512, kernel_size=(3, 3), stride=(1, 1), padding=(1, 1))
    (7): MaxPool2d(kernel_size=2, stride=2, padding=0, dilation=1, ceil_mode=False)
    (8): ReLU(inplace=True)
    (9): Conv2d(512, 512, kernel_size=(3, 3), stride=(1, 1), padding=(1, 1))
    (10): MaxPool2d(kernel_size=2, stride=2, padding=0, dilation=1, ceil_mode=False)
    (11): ReLU(inplace=True)
    (12): Conv2d(512, 512, kernel_size=(3, 3), stride=(1, 1), padding=(1, 1))
    (13): MaxPool2d(kernel_size=2, stride=2, padding=0, dilation=1, ceil_mode=False)
    (14): ReLU(inplace=True)
    (15): Flatten(start_dim=1, end_dim=-1)
    (16): Linear(in_features=512, out_features=10, bias=True)
  )
)
------------------------------------------------------------------
Parameters name         Parameter size 

------------------------------------------------------------------
conv_layer.0.weight      3456
conv_layer.0.bias        128
conv_layer.3.weight      589824
conv_layer.3.bias        512
conv_layer.6.weight      2359296
conv_layer.6.bias        512
…
Epoch [18/20], Step [100/245], Loss: 0.1354
Epoch [18/20], Step [200/245], Loss: 0.1707
Validataion accuracy is: 79.2 %
Validataion loss is: 0.8563
Epoch [19/20], Step [100/245], Loss: 0.0724
Epoch [19/20], Step [200/245], Loss: 0.0984
Validataion accuracy is: 80.0 %
Validataion loss is: 0.8429
Epoch [20/20], Step [100/245], Loss: 0.0387
Epoch [20/20], Step [200/245], Loss: 0.1249
Validataion accuracy is: 80.1 %
Validataion loss is: 0.8511
Accuracy of the network on the 1000 test images: 80.9 %


dropouts:
Using device: cuda
[128, 512, 512, 512, 512, 512]
ConvNet(
  (conv_layer): Sequential(
    (0): Conv2d(3, 128, kernel_size=(3, 3), stride=(1, 1), padding=(1, 1))
    (1): BatchNorm2d(128, eps=1e-05, momentum=0.1, affine=True, track_running_stats=True)
    (2): MaxPool2d(kernel_size=2, stride=2, padding=0, dilation=1, ceil_mode=False)
    (3): ReLU(inplace=True)
    (4): Dropout(p=0.1, inplace=False)
    (5): Conv2d(128, 512, kernel_size=(3, 3), stride=(1, 1), padding=(1, 1))
    (6): BatchNorm2d(512, eps=1e-05, momentum=0.1, affine=True, track_running_stats=True)
    (7): MaxPool2d(kernel_size=2, stride=2, padding=0, dilation=1, ceil_mode=False)
    (8): ReLU(inplace=True)
    (9): Dropout(p=0.1, inplace=False)
    (10): Conv2d(512, 512, kernel_size=(3, 3), stride=(1, 1), padding=(1, 1))
    (11): BatchNorm2d(512, eps=1e-05, momentum=0.1, affine=True, track_running_stats=True)
    (12): MaxPool2d(kernel_size=2, stride=2, padding=0, dilation=1, ceil_mode=False)
    (13): ReLU(inplace=True)
    (14): Dropout(p=0.1, inplace=False)
    (15): Conv2d(512, 512, kernel_size=(3, 3), stride=(1, 1), padding=(1, 1))
    (16): BatchNorm2d(512, eps=1e-05, momentum=0.1, affine=True, track_running_stats=True)
    (17): MaxPool2d(kernel_size=2, stride=2, padding=0, dilation=1, ceil_mode=False)
    (18): ReLU(inplace=True)
    (19): Dropout(p=0.1, inplace=False)
    (20): Conv2d(512, 512, kernel_size=(3, 3), stride=(1, 1), padding=(1, 1))
    (21): BatchNorm2d(512, eps=1e-05, momentum=0.1, affine=True, track_running_stats=True)
    (22): MaxPool2d(kernel_size=2, stride=2, padding=0, dilation=1, ceil_mode=False)
    (23): ReLU(inplace=True)
    (24): Flatten(start_dim=1, end_dim=-1)
    (25): Linear(in_features=512, out_features=10, bias=True)
  )
)
------------------------------------------------------------------
Parameters name 	Parameter size 

------------------------------------------------------------------
conv_layer.0.weight 	 3456
conv_layer.0.bias 	 128
conv_layer.1.weight 	 128
conv_layer.1.bias 	 128
conv_layer.5.weight 	 589824
conv_layer.5.bias 	 512
conv_layer.6.weight 	 512
conv_layer.6.bias 	 512
…
