…
Validataion accuracy is: 50.9 %
Epoch [8/10], Step [100/245], Loss: 1.4770
Epoch [8/10], Step [200/245], Loss: 1.3629
Validataion accuracy is: 49.3 %
Epoch [9/10], Step [100/245], Loss: 1.3603
Epoch [9/10], Step [200/245], Loss: 1.3363
Validataion accuracy is: 50.3 %
Epoch [10/10], Step [100/245], Loss: 1.3063
Epoch [10/10], Step [200/245], Loss: 1.2972
Validataion accuracy is: 51.4 %

4 hidden layers 
(lightning) root@8b02602e1f32:/home/HLCV# /root/miniconda3/envs/lightning/bin/python /home/HLCV/Assignment2/code/ex2_pytorch.py
Using device: cuda
MultiLayerPerceptron(
  (layers): Sequential(
    (0): Linear(in_features=3072, out_features=1034, bias=True)
    (1): ReLU(inplace=True)
    (2): Linear(in_features=1034, out_features=512, bias=True)
    (3): ReLU(inplace=True)
    (4): Linear(in_features=512, out_features=256, bias=True)
    (5): ReLU(inplace=True)
    (6): Linear(in_features=256, out_features=128, bias=True)
    (7): ReLU(inplace=True)
    (8): Linear(in_features=128, out_features=10, bias=True)
  )
)
Epoch [1/10], Step [100/192], Loss: 2.3021
Validataion accuracy is: 10.5 %
Epoch [2/10], Step [100/192], Loss: 2.3032
Validataion accuracy is: 7.8 %
Epoch [3/10], Step [100/192], Loss: 2.3027
Validataion accuracy is: 7.8 %
Epoch [4/10], Step [100/192], Loss: 2.3025
Validataion accuracy is: 8.7 %
Epoch [5/10], Step [100/192], Loss: 2.3027
Validataion accuracy is: 7.8 %
…
Epoch [26/30], Step [100/192], Loss: 0.7811
Validataion accuracy is: 57.7 %
Epoch [27/30], Step [100/192], Loss: 0.7217
Validataion accuracy is: 57.8 %
Epoch [28/30], Step [100/192], Loss: 0.7621
Validataion accuracy is: 58.4 %
Epoch [29/30], Step [100/192], Loss: 0.7097
Validataion accuracy is: 57.1 %
Epoch [30/30], Step [100/192], Loss: 0.6874
Validataion accuracy is: 56.8 %
(lightning) root@8b02602e1f32:/home/HLCV# 

CNN model
(lightning) root@8b02602e1f32:/home/HLCV# /root/miniconda3/envs/lightning/bin/python /home/HLCV/Assignment2/code/ex2_pytorch.py
Using device: cuda
MultiLayerPerceptron(
  (conv_layer): Sequential(
    (0): Conv2d(3, 32, kernel_size=(3, 3), stride=(1, 1), padding=(1, 1))
    (1): BatchNorm2d(32, eps=1e-05, momentum=0.1, affine=True, track_running_stats=True)
    (2): ReLU(inplace=True)
    (3): Conv2d(32, 64, kernel_size=(3, 3), stride=(1, 1), padding=(1, 1))
    (4): ReLU(inplace=True)
    (5): MaxPool2d(kernel_size=2, stride=2, padding=0, dilation=1, ceil_mode=False)
    (6): Conv2d(64, 128, kernel_size=(3, 3), stride=(1, 1), padding=(1, 1))
    (7): BatchNorm2d(128, eps=1e-05, momentum=0.1, affine=True, track_running_stats=True)
    (8): ReLU(inplace=True)
    (9): Conv2d(128, 128, kernel_size=(3, 3), stride=(1, 1), padding=(1, 1))
    (10): ReLU(inplace=True)
    (11): MaxPool2d(kernel_size=2, stride=2, padding=0, dilation=1, ceil_mode=False)
    (12): Dropout2d(p=0.05, inplace=False)
    (13): Conv2d(128, 256, kernel_size=(3, 3), stride=(1, 1), padding=(1, 1))
    (14): BatchNorm2d(256, eps=1e-05, momentum=0.1, affine=True, track_running_stats=True)
    (15): ReLU(inplace=True)
    (16): Conv2d(256, 256, kernel_size=(3, 3), stride=(1, 1), padding=(1, 1))
    (17): ReLU(inplace=True)
    (18): MaxPool2d(kernel_size=2, stride=2, padding=0, dilation=1, ceil_mode=False)
  )
  (layers): Sequential(
    (0): Dropout(p=0.2, inplace=False)
    (1): Linear(in_features=4096, out_features=1034, bias=True)
    (2): ReLU(inplace=True)
    (3): Linear(in_features=1034, out_features=512, bias=True)
    (4): ReLU(inplace=True)
    (5): Dropout(p=0.2, inplace=False)
    (6): Linear(in_features=512, out_features=10, bias=True)
  )
)
Epoch [1/30], Step [100/192], Loss: 1.4952
Validataion accuracy is: 52.6 %
Epoch [2/30], Step [100/192], Loss: 1.1665
Validataion accuracy is: 68.1 %
Epoch [3/30], Step [100/192], Loss: 0.6415
Validataion accuracy is: 74.4 %
Epoch [4/30], Step [100/192], Loss: 0.6920
Validataion accuracy is: 76.5 %
Epoch [5/30], Step [100/192], Loss: 0.6121
Validataion accuracy is: 79.1 %
…
